Model: "model"
__________________________________________________________________________________________________
 Layer (type)                   Output Shape         Param #     Connected to                     
==================================================================================================
 input_1 (InputLayer)           [(None, 28, 28)]     0           []                               
                                                                                                  
 reshape (Reshape)              (None, 28, 28, 1)    0           ['input_1[0][0]']                
                                                                                                  
 conv2d (Conv2D)                (None, 26, 26, 16)   160         ['reshape[0][0]']                
                                                                                                  
 max_pooling2d (MaxPooling2D)   (None, 13, 13, 16)   0           ['conv2d[0][0]']                 
                                                                                                  
 conv2d_1 (Conv2D)              (None, 11, 11, 64)   9280        ['max_pooling2d[0][0]']          
                                                                                                  
 max_pooling2d_1 (MaxPooling2D)  (None, 5, 5, 64)    0           ['conv2d_1[0][0]']               
                                                                                                  
 conv2d_2 (Conv2D)              (None, 3, 3, 128)    73856       ['max_pooling2d_1[0][0]']        
                                                                                                  
 max_pooling2d_2 (MaxPooling2D)  (None, 1, 1, 128)   0           ['conv2d_2[0][0]']               
                                                                                                  
 batch_normalization (BatchNorm  (None, 1, 1, 128)   512         ['max_pooling2d_2[0][0]']        
 alization)                                                                                       
                                                                                                  
 activation (Activation)        (None, 1, 1, 128)    0           ['batch_normalization[0][0]']    
                                                                                                  
 conv2d_3 (Conv2D)              (None, 1, 1, 12)     13836       ['activation[0][0]']             
                                                                                                  
 concatenate (Concatenate)      (None, 1, 1, 140)    0           ['max_pooling2d_2[0][0]',        
                                                                  'conv2d_3[0][0]']               
                                                                                                  
 dropout (Dropout)              (None, 1, 1, 140)    0           ['concatenate[0][0]']            
                                                                                                  
 batch_normalization_1 (BatchNo  (None, 1, 1, 140)   560         ['dropout[0][0]']                
 rmalization)                                                                                     
                                                                                                  
 activation_1 (Activation)      (None, 1, 1, 140)    0           ['batch_normalization_1[0][0]']  
                                                                                                  
 conv2d_4 (Conv2D)              (None, 1, 1, 12)     15132       ['activation_1[0][0]']           
                                                                                                  
 concatenate_1 (Concatenate)    (None, 1, 1, 152)    0           ['dropout[0][0]',                
                                                                  'conv2d_4[0][0]']               
                                                                                                  
 dropout_1 (Dropout)            (None, 1, 1, 152)    0           ['concatenate_1[0][0]']          
                                                                                                  
 batch_normalization_2 (BatchNo  (None, 1, 1, 152)   608         ['dropout_1[0][0]']              
 rmalization)                                                                                     
                                                                                                  
 activation_2 (Activation)      (None, 1, 1, 152)    0           ['batch_normalization_2[0][0]']  
                                                                                                  
 conv2d_5 (Conv2D)              (None, 1, 1, 12)     16428       ['activation_2[0][0]']           
                                                                                                  
 concatenate_2 (Concatenate)    (None, 1, 1, 164)    0           ['dropout_1[0][0]',              
                                                                  'conv2d_5[0][0]']               
                                                                                                  
 dropout_2 (Dropout)            (None, 1, 1, 164)    0           ['concatenate_2[0][0]']          
                                                                                                  
 batch_normalization_3 (BatchNo  (None, 1, 1, 164)   656         ['dropout_2[0][0]']              
 rmalization)                                                                                     
                                                                                                  
 activation_3 (Activation)      (None, 1, 1, 164)    0           ['batch_normalization_3[0][0]']  
                                                                                                  
 conv2d_6 (Conv2D)              (None, 1, 1, 12)     17724       ['activation_3[0][0]']           
                                                                                                  
 concatenate_3 (Concatenate)    (None, 1, 1, 176)    0           ['dropout_2[0][0]',              
                                                                  'conv2d_6[0][0]']               
                                                                                                  
 dropout_3 (Dropout)            (None, 1, 1, 176)    0           ['concatenate_3[0][0]']          
                                                                                                  
 batch_normalization_4 (BatchNo  (None, 1, 1, 176)   704         ['dropout_3[0][0]']              
 rmalization)                                                                                     
                                                                                                  
 activation_4 (Activation)      (None, 1, 1, 176)    0           ['batch_normalization_4[0][0]']  
                                                                                                  
 conv2d_7 (Conv2D)              (None, 1, 1, 12)     19020       ['activation_4[0][0]']           
                                                                                                  
 concatenate_4 (Concatenate)    (None, 1, 1, 188)    0           ['dropout_3[0][0]',              
                                                                  'conv2d_7[0][0]']               
                                                                                                  
 dropout_4 (Dropout)            (None, 1, 1, 188)    0           ['concatenate_4[0][0]']          
                                                                                                  
 batch_normalization_5 (BatchNo  (None, 1, 1, 188)   752         ['dropout_4[0][0]']              
 rmalization)                                                                                     
                                                                                                  
 activation_5 (Activation)      (None, 1, 1, 188)    0           ['batch_normalization_5[0][0]']  
                                                                                                  
 conv2d_8 (Conv2D)              (None, 1, 1, 12)     20316       ['activation_5[0][0]']           
                                                                                                  
 concatenate_5 (Concatenate)    (None, 1, 1, 200)    0           ['dropout_4[0][0]',              
                                                                  'conv2d_8[0][0]']               
                                                                                                  
 dropout_5 (Dropout)            (None, 1, 1, 200)    0           ['concatenate_5[0][0]']          
                                                                                                  
 batch_normalization_6 (BatchNo  (None, 1, 1, 200)   800         ['dropout_5[0][0]']              
 rmalization)                                                                                     
                                                                                                  
 activation_6 (Activation)      (None, 1, 1, 200)    0           ['batch_normalization_6[0][0]']  
                                                                                                  
 conv2d_9 (Conv2D)              (None, 1, 1, 100)    20100       ['activation_6[0][0]']           
                                                                                                  
 batch_normalization_7 (BatchNo  (None, 1, 1, 100)   400         ['conv2d_9[0][0]']               
 rmalization)                                                                                     
                                                                                                  
 activation_7 (Activation)      (None, 1, 1, 100)    0           ['batch_normalization_7[0][0]']  
                                                                                                  
 conv2d_10 (Conv2D)             (None, 1, 1, 12)     10812       ['activation_7[0][0]']           
                                                                                                  
 concatenate_6 (Concatenate)    (None, 1, 1, 112)    0           ['conv2d_9[0][0]',               
                                                                  'conv2d_10[0][0]']              
                                                                                                  
 dropout_6 (Dropout)            (None, 1, 1, 112)    0           ['concatenate_6[0][0]']          
                                                                                                  
 batch_normalization_8 (BatchNo  (None, 1, 1, 112)   448         ['dropout_6[0][0]']              
 rmalization)                                                                                     
                                                                                                  
 activation_8 (Activation)      (None, 1, 1, 112)    0           ['batch_normalization_8[0][0]']  
                                                                                                  
 conv2d_11 (Conv2D)             (None, 1, 1, 12)     12108       ['activation_8[0][0]']           
                                                                                                  
 concatenate_7 (Concatenate)    (None, 1, 1, 124)    0           ['dropout_6[0][0]',              
                                                                  'conv2d_11[0][0]']              
                                                                                                  
 dropout_7 (Dropout)            (None, 1, 1, 124)    0           ['concatenate_7[0][0]']          
                                                                                                  
 batch_normalization_9 (BatchNo  (None, 1, 1, 124)   496         ['dropout_7[0][0]']              
 rmalization)                                                                                     
                                                                                                  
 activation_9 (Activation)      (None, 1, 1, 124)    0           ['batch_normalization_9[0][0]']  
                                                                                                  
 conv2d_12 (Conv2D)             (None, 1, 1, 12)     13404       ['activation_9[0][0]']           
                                                                                                  
 concatenate_8 (Concatenate)    (None, 1, 1, 136)    0           ['dropout_7[0][0]',              
                                                                  'conv2d_12[0][0]']              
                                                                                                  
 dropout_8 (Dropout)            (None, 1, 1, 136)    0           ['concatenate_8[0][0]']          
                                                                                                  
 batch_normalization_10 (BatchN  (None, 1, 1, 136)   544         ['dropout_8[0][0]']              
 ormalization)                                                                                    
                                                                                                  
 activation_10 (Activation)     (None, 1, 1, 136)    0           ['batch_normalization_10[0][0]'] 
                                                                                                  
 conv2d_13 (Conv2D)             (None, 1, 1, 12)     14700       ['activation_10[0][0]']          
                                                                                                  
 concatenate_9 (Concatenate)    (None, 1, 1, 148)    0           ['dropout_8[0][0]',              
                                                                  'conv2d_13[0][0]']              
                                                                                                  
 dropout_9 (Dropout)            (None, 1, 1, 148)    0           ['concatenate_9[0][0]']          
                                                                                                  
 batch_normalization_11 (BatchN  (None, 1, 1, 148)   592         ['dropout_9[0][0]']              
 ormalization)                                                                                    
                                                                                                  
 activation_11 (Activation)     (None, 1, 1, 148)    0           ['batch_normalization_11[0][0]'] 
                                                                                                  
 conv2d_14 (Conv2D)             (None, 1, 1, 12)     15996       ['activation_11[0][0]']          
                                                                                                  
 concatenate_10 (Concatenate)   (None, 1, 1, 160)    0           ['dropout_9[0][0]',              
                                                                  'conv2d_14[0][0]']              
                                                                                                  
 dropout_10 (Dropout)           (None, 1, 1, 160)    0           ['concatenate_10[0][0]']         
                                                                                                  
 batch_normalization_12 (BatchN  (None, 1, 1, 160)   640         ['dropout_10[0][0]']             
 ormalization)                                                                                    
                                                                                                  
 activation_12 (Activation)     (None, 1, 1, 160)    0           ['batch_normalization_12[0][0]'] 
                                                                                                  
 conv2d_15 (Conv2D)             (None, 1, 1, 12)     17292       ['activation_12[0][0]']          
                                                                                                  
 concatenate_11 (Concatenate)   (None, 1, 1, 172)    0           ['dropout_10[0][0]',             
                                                                  'conv2d_15[0][0]']              
                                                                                                  
 dropout_11 (Dropout)           (None, 1, 1, 172)    0           ['concatenate_11[0][0]']         
                                                                                                  
 batch_normalization_13 (BatchN  (None, 1, 1, 172)   688         ['dropout_11[0][0]']             
 ormalization)                                                                                    
                                                                                                  
 activation_13 (Activation)     (None, 1, 1, 172)    0           ['batch_normalization_13[0][0]'] 
                                                                                                  
 conv2d_16 (Conv2D)             (None, 1, 1, 12)     18588       ['activation_13[0][0]']          
                                                                                                  
 concatenate_12 (Concatenate)   (None, 1, 1, 184)    0           ['dropout_11[0][0]',             
                                                                  'conv2d_16[0][0]']              
                                                                                                  
 dropout_12 (Dropout)           (None, 1, 1, 184)    0           ['concatenate_12[0][0]']         
                                                                                                  
 batch_normalization_14 (BatchN  (None, 1, 1, 184)   736         ['dropout_12[0][0]']             
 ormalization)                                                                                    
                                                                                                  
 activation_14 (Activation)     (None, 1, 1, 184)    0           ['batch_normalization_14[0][0]'] 
                                                                                                  
 conv2d_17 (Conv2D)             (None, 1, 1, 12)     19884       ['activation_14[0][0]']          
                                                                                                  
 concatenate_13 (Concatenate)   (None, 1, 1, 196)    0           ['dropout_12[0][0]',             
                                                                  'conv2d_17[0][0]']              
                                                                                                  
 dropout_13 (Dropout)           (None, 1, 1, 196)    0           ['concatenate_13[0][0]']         
                                                                                                  
 batch_normalization_15 (BatchN  (None, 1, 1, 196)   784         ['dropout_13[0][0]']             
 ormalization)                                                                                    
                                                                                                  
 activation_15 (Activation)     (None, 1, 1, 196)    0           ['batch_normalization_15[0][0]'] 
                                                                                                  
 conv2d_18 (Conv2D)             (None, 1, 1, 12)     21180       ['activation_15[0][0]']          
                                                                                                  
 concatenate_14 (Concatenate)   (None, 1, 1, 208)    0           ['dropout_13[0][0]',             
                                                                  'conv2d_18[0][0]']              
                                                                                                  
 dropout_14 (Dropout)           (None, 1, 1, 208)    0           ['concatenate_14[0][0]']         
                                                                                                  
 batch_normalization_16 (BatchN  (None, 1, 1, 208)   832         ['dropout_14[0][0]']             
 ormalization)                                                                                    
                                                                                                  
 activation_16 (Activation)     (None, 1, 1, 208)    0           ['batch_normalization_16[0][0]'] 
                                                                                                  
 conv2d_19 (Conv2D)             (None, 1, 1, 12)     22476       ['activation_16[0][0]']          
                                                                                                  
 concatenate_15 (Concatenate)   (None, 1, 1, 220)    0           ['dropout_14[0][0]',             
                                                                  'conv2d_19[0][0]']              
                                                                                                  
 dropout_15 (Dropout)           (None, 1, 1, 220)    0           ['concatenate_15[0][0]']         
                                                                                                  
 batch_normalization_17 (BatchN  (None, 1, 1, 220)   880         ['dropout_15[0][0]']             
 ormalization)                                                                                    
                                                                                                  
 activation_17 (Activation)     (None, 1, 1, 220)    0           ['batch_normalization_17[0][0]'] 
                                                                                                  
 conv2d_20 (Conv2D)             (None, 1, 1, 12)     23772       ['activation_17[0][0]']          
                                                                                                  
 concatenate_16 (Concatenate)   (None, 1, 1, 232)    0           ['dropout_15[0][0]',             
                                                                  'conv2d_20[0][0]']              
                                                                                                  
 dropout_16 (Dropout)           (None, 1, 1, 232)    0           ['concatenate_16[0][0]']         
                                                                                                  
 batch_normalization_18 (BatchN  (None, 1, 1, 232)   928         ['dropout_16[0][0]']             
 ormalization)                                                                                    
                                                                                                  
 activation_18 (Activation)     (None, 1, 1, 232)    0           ['batch_normalization_18[0][0]'] 
                                                                                                  
 conv2d_21 (Conv2D)             (None, 1, 1, 12)     25068       ['activation_18[0][0]']          
                                                                                                  
 concatenate_17 (Concatenate)   (None, 1, 1, 244)    0           ['dropout_16[0][0]',             
                                                                  'conv2d_21[0][0]']              
                                                                                                  
 dropout_17 (Dropout)           (None, 1, 1, 244)    0           ['concatenate_17[0][0]']         
                                                                                                  
 flatten (Flatten)              (None, 244)          0           ['dropout_17[0][0]']             
                                                                                                  
 dense (Dense)                  (None, 64)           15680       ['flatten[0][0]']                
                                                                                                  
 batch_normalization_19 (BatchN  (None, 64)          256         ['dense[0][0]']                  
 ormalization)                                                                                    
                                                                                                  
 dropout_18 (Dropout)           (None, 64)           0           ['batch_normalization_19[0][0]'] 
                                                                                                  
 dense_1 (Dense)                (None, 64)           4160        ['dropout_18[0][0]']             
                                                                                                  
 batch_normalization_20 (BatchN  (None, 64)          256         ['dense_1[0][0]']                
 ormalization)                                                                                    
                                                                                                  
 dropout_19 (Dropout)           (None, 64)           0           ['batch_normalization_20[0][0]'] 
                                                                                                  
 dense_2 (Dense)                (None, 5)            325         ['dropout_19[0][0]']             
                                                                                                  
==================================================================================================
Total params: 454,369
Trainable params: 447,833
Non-trainable params: 6,536
__________________________________________________________________________________________________
…
