…
sktop/cs/V
ision Computing Lab/starter-project/main.py"
Model: "model_1"
__________________________________________________________________________________________________
 Layer (type)                   Output Shape         Param #     Connected to                     
==================================================================================================
 input_2 (InputLayer)           [(None, 28, 28)]     0           []                               
                                                                                                  
 reshape_1 (Reshape)            (None, 28, 28, 1)    0           ['input_2[0][0]']                
                                                                                                  
 conv2d_3 (Conv2D)              (None, 26, 26, 16)   160         ['reshape_1[0][0]']              
                                                                                                  
 max_pooling2d_3 (MaxPooling2D)  (None, 13, 13, 16)  0           ['conv2d_3[0][0]']               
                                                                                                  
 conv2d_4 (Conv2D)              (None, 11, 11, 64)   9280        ['max_pooling2d_3[0][0]']        
                                                                                                  
 max_pooling2d_4 (MaxPooling2D)  (None, 5, 5, 64)    0           ['conv2d_4[0][0]']               
                                                                                                  
 conv2d_5 (Conv2D)              (None, 3, 3, 128)    73856       ['max_pooling2d_4[0][0]']        
                                                                                                  
 max_pooling2d_5 (MaxPooling2D)  (None, 1, 1, 128)   0           ['conv2d_5[0][0]']               
                                                                                                  
 batch_normalization_2 (BatchNo  (None, 1, 1, 128)   512         ['max_pooling2d_5[0][0]']        
 rmalization)                                                                                     
                                                                                                  
 activation (Activation)        (None, 1, 1, 128)    0           ['batch_normalization_2[0][0]']  
                                                                                                  
 conv2d_6 (Conv2D)              (None, 1, 1, 12)     13836       ['activation[0][0]']             
                                                                                                  
 concatenate (Concatenate)      (None, 1, 1, 140)    0           ['max_pooling2d_5[0][0]',        
                                                                  'conv2d_6[0][0]']               
                                                                                                  
 dropout_2 (Dropout)            (None, 1, 1, 140)    0           ['concatenate[0][0]']            
                                                                                                  
 batch_normalization_3 (BatchNo  (None, 1, 1, 140)   560         ['dropout_2[0][0]']              
 rmalization)                                                                                     
                                                                                                  
 activation_1 (Activation)      (None, 1, 1, 140)    0           ['batch_normalization_3[0][0]']  
                                                                                                  
 conv2d_7 (Conv2D)              (None, 1, 1, 70)     9870        ['activation_1[0][0]']           
                                                                                                  
 batch_normalization_4 (BatchNo  (None, 1, 1, 70)    280         ['conv2d_7[0][0]']               
 rmalization)                                                                                     
                                                                                                  
 activation_2 (Activation)      (None, 1, 1, 70)     0           ['batch_normalization_4[0][0]']  
                                                                                                  
 conv2d_8 (Conv2D)              (None, 1, 1, 12)     7572        ['activation_2[0][0]']           
                                                                                                  
 concatenate_1 (Concatenate)    (None, 1, 1, 82)     0           ['conv2d_7[0][0]',               
                                                                  'conv2d_8[0][0]']               
                                                                                                  
 dropout_3 (Dropout)            (None, 1, 1, 82)     0           ['concatenate_1[0][0]']          
                                                                                                  
 flatten_1 (Flatten)            (None, 82)           0           ['dropout_3[0][0]']              
                                                                                                  
 dense_3 (Dense)                (None, 64)           5312        ['flatten_1[0][0]']              
                                                                                                  
 batch_normalization_5 (BatchNo  (None, 64)          256         ['dense_3[0][0]']                
 rmalization)                                                                                     
                                                                                                  
 dropout_4 (Dropout)            (None, 64)           0           ['batch_normalization_5[0][0]']  
                                                                                                  
 dense_4 (Dense)                (None, 64)           4160        ['dropout_4[0][0]']              
                                                                                                  
 batch_normalization_6 (BatchNo  (None, 64)          256         ['dense_4[0][0]']                
 rmalization)                                                                                     
                                                                                                  
 dropout_5 (Dropout)            (None, 64)           0           ['batch_normalization_6[0][0]']  
                                                                                                  
 dense_5 (Dense)                (None, 3)            195         ['dropout_5[0][0]']              
                                                                                                  
==================================================================================================
Total params: 126,105
Trainable params: 125,173
Non-trainable params: 932
__________________________________________________________________________________________________
…
